hello pytorch/lesson/lesson-31/model_in_multi_gpu.pkl (torch_old, 860 bytes, 3 tensors)

module.linears.0.weight f4 [3, 3]
00000000: b4e8 0cbe 00cb 443d 2cd6 bd3e 4485 1d3e
00000010: 006b 0e3b e87d b3bd a088 403e 9887 953e
00000020: d4d8 963e
-0.13760644 0.04804516 0.37077463 0.15382868 0.0021731257 -0.08764249 0.18802118 0.29205012
0.29462302

module.linears.1.weight f4 [3, 3]
00000000: 1e1a dcbe 322d c03e 080b 41be 5469 793e
00000010: b46f 00bf 66e7 3cbe c2d5 c73e 6c68 84be
00000020: 7112 02bf
-0.42988676 0.3753448 -0.18851864 0.24356586 -0.50170445 -0.18447646 0.39030272 -0.25860918
-0.5080939

module.linears.2.weight f4 [3, 3]
00000000: c449 20be c017 783d 2035 bcbc ea6c c63e
00000010: f479 113e 10d5 a7be 5076 61bd f0a2 d1bd
00000020: b806 d2bd
-0.1565314 0.060569525 -0.02297455 0.3875497 0.14206678 -0.3277974 -0.055044472 -0.10236156
-0.10255188
